…
======================================================================
COMPARING DIFFERENT CNN CONFIGURATIONS
======================================================================

======================================================================
Training: Baseline CNN
======================================================================

Model Architecture:
Model: "sequential"
┌─────────────────────────────────┬────────────────────────┬───────────────┐
│ Layer (type)                    │ Output Shape           │       Param # │
├─────────────────────────────────┼────────────────────────┼───────────────┤
│ conv1d (Conv1D)                 │ (None, 4, 32)          │            96 │
├─────────────────────────────────┼────────────────────────┼───────────────┤
│ max_pooling1d (MaxPooling1D)    │ (None, 2, 32)          │             0 │
├─────────────────────────────────┼────────────────────────┼───────────────┤
│ flatten (Flatten)               │ (None, 64)             │             0 │
├─────────────────────────────────┼────────────────────────┼───────────────┤
│ dense (Dense)                   │ (None, 64)             │         4,160 │
├─────────────────────────────────┼────────────────────────┼───────────────┤
│ dropout (Dropout)               │ (None, 64)             │             0 │
├─────────────────────────────────┼────────────────────────┼───────────────┤
│ dense_1 (Dense)                 │ (None, 3)              │           195 │
└─────────────────────────────────┴────────────────────────┴───────────────┘
 Total params: 4,451 (17.39 KB)
 Trainable params: 4,451 (17.39 KB)
 Non-trainable params: 0 (0.00 B)
Epoch 1/100

[1m1/8[0m [32m━━[0m[37m━━━━━━━━━━━━━━━━━━[0m [1m9s[0m 1s/step - accuracy: 0.2500 - loss: 1.0506
[1m8/8[0m [32m━━━━━━━━━━━━━━━━━━━━[0m[37m[0m [1m2s[0m 46ms/step - accuracy: 0.3750 - loss: 1.0399 - val_accuracy: 0.3667 - val_loss: 0.9615 - learning_rate: 0.0010
…
[1m8/8[0m [32m━━━━━━━━━━━━━━━━━━━━[0m[37m[0m [1m0s[0m 9ms/step - accuracy: 0.9750 - loss: 0.0518 - val_accuracy: 1.0000 - val_loss: 0.0425 - learning_rate: 5.0000e-04
Restoring model weights from the end of the best epoch: 100.

Test Accuracy: 100.00%

======================================================================
Training: Deep CNN
======================================================================

Model Architecture:
Model: "sequential_1"
┌─────────────────────────────────┬────────────────────────┬───────────────┐
│ Layer (type)                    │ Output Shape           │       Param # │
├─────────────────────────────────┼────────────────────────┼───────────────┤
│ conv1d_1 (Conv1D)               │ (None, 4, 64)          │           192 │
├─────────────────────────────────┼────────────────────────┼───────────────┤
│ batch_normalization             │ (None, 4, 64)          │           256 │
│ (BatchNormalization)            │                        │               │
├─────────────────────────────────┼────────────────────────┼───────────────┤
│ conv1d_2 (Conv1D)               │ (None, 4, 64)          │         8,256 │
├─────────────────────────────────┼────────────────────────┼───────────────┤
│ max_pooling1d_1 (MaxPooling1D)  │ (None, 2, 64)          │             0 │
├─────────────────────────────────┼────────────────────────┼───────────────┤
│ dropout_1 (Dropout)             │ (None, 2, 64)          │             0 │
├─────────────────────────────────┼────────────────────────┼───────────────┤
│ conv1d_3 (Conv1D)               │ (None, 2, 128)         │        16,512 │
├─────────────────────────────────┼────────────────────────┼───────────────┤
│ batch_normalization_1           │ (None, 2, 128)         │           512 │
│ (BatchNormalization)            │                        │               │
├─────────────────────────────────┼────────────────────────┼───────────────┤
│ flatten_1 (Flatten)             │ (None, 256)            │             0 │
├─────────────────────────────────┼────────────────────────┼───────────────┤
│ dense_2 (Dense)                 │ (None, 128)            │        32,896 │
├─────────────────────────────────┼────────────────────────┼───────────────┤
│ dropout_2 (Dropout)             │ (None, 128)            │             0 │
├─────────────────────────────────┼────────────────────────┼───────────────┤
│ dense_3 (Dense)                 │ (None, 64)             │         8,256 │
├─────────────────────────────────┼────────────────────────┼───────────────┤
│ dropout_3 (Dropout)             │ (None, 64)             │             0 │
├─────────────────────────────────┼────────────────────────┼───────────────┤
│ dense_4 (Dense)                 │ (None, 3)              │           195 │
└─────────────────────────────────┴────────────────────────┴───────────────┘
 Total params: 67,075 (262.01 KB)
 Trainable params: 66,691 (260.51 KB)
 Non-trainable params: 384 (1.50 KB)
Epoch 1/100

[1m1/8[0m [32m━━[0m[37m━━━━━━━━━━━━━━━━━━[0m [1m18s[0m 3s/step - accuracy: 0.4375 - loss: 1.2252
[1m8/8[0m [32m━━━━━━━━━━━━━━━━━━━━[0m[37m[0m [1m3s[0m 49ms/step - accuracy: 0.7250 - loss: 0.7615 - val_accuracy: 0.7000 - val_loss: 1.0234 - learning_rate: 0.0010
…
[1m8/8[0m [32m━━━━━━━━━━━━━━━━━━━━[0m[37m[0m [1m0s[0m 17ms/step - accuracy: 0.9917 - loss: 0.0317 - val_accuracy: 1.0000 - val_loss: 0.0106 - learning_rate: 2.5000e-04
Restoring model weights from the end of the best epoch: 94.

Test Accuracy: 100.00%

======================================================================
Training: CNN without MaxPooling
======================================================================

Model Architecture:
Model: "sequential_2"
┌─────────────────────────────────┬────────────────────────┬───────────────┐
│ Layer (type)                    │ Output Shape           │       Param # │
├─────────────────────────────────┼────────────────────────┼───────────────┤
│ conv1d_4 (Conv1D)               │ (None, 4, 64)          │           192 │
├─────────────────────────────────┼────────────────────────┼───────────────┤
│ batch_normalization_2           │ (None, 4, 64)          │           256 │
│ (BatchNormalization)            │                        │               │
├─────────────────────────────────┼────────────────────────┼───────────────┤
│ conv1d_5 (Conv1D)               │ (None, 4, 128)         │        16,512 │
├─────────────────────────────────┼────────────────────────┼───────────────┤
│ batch_normalization_3           │ (None, 4, 128)         │           512 │
│ (BatchNormalization)            │                        │               │
├─────────────────────────────────┼────────────────────────┼───────────────┤
│ flatten_2 (Flatten)             │ (None, 512)            │             0 │
├─────────────────────────────────┼────────────────────────┼───────────────┤
│ dense_5 (Dense)                 │ (None, 128)            │        65,664 │
├─────────────────────────────────┼────────────────────────┼───────────────┤
│ dropout_4 (Dropout)             │ (None, 128)            │             0 │
├─────────────────────────────────┼────────────────────────┼───────────────┤
│ dense_6 (Dense)                 │ (None, 64)             │         8,256 │
├─────────────────────────────────┼────────────────────────┼───────────────┤
│ dropout_5 (Dropout)             │ (None, 64)             │             0 │
├─────────────────────────────────┼────────────────────────┼───────────────┤
│ dense_7 (Dense)                 │ (None, 3)              │           195 │
└─────────────────────────────────┴────────────────────────┴───────────────┘
 Total params: 91,587 (357.76 KB)
 Trainable params: 91,203 (356.26 KB)
 Non-trainable params: 384 (1.50 KB)
Epoch 1/100

[1m1/8[0m [32m━━[0m[37m━━━━━━━━━━━━━━━━━━[0m [1m33s[0m 5s/step - accuracy: 0.1250 - loss: 2.5853
[1m7/8[0m [32m━━━━━━━━━━━━━━━━━[0m[37m━━━[0m [1m0s[0m 9ms/step - accuracy: 0.4651 - loss: 1.4257
…
[1m8/8[0m [32m━━━━━━━━━━━━━━━━━━━━[0m[37m[0m [1m0s[0m 16ms/step - accuracy: 1.0000 - loss: 0.0037 - val_accuracy: 0.9333 - val_loss: 0.1459 - learning_rate: 6.2500e-05
Epoch 74: early stopping
Restoring model weights from the end of the best epoch: 59.

Test Accuracy: 96.67%

======================================================================
Training: CNN with Tanh Activation
======================================================================

Model Architecture:
Model: "sequential_3"
┌─────────────────────────────────┬────────────────────────┬───────────────┐
│ Layer (type)                    │ Output Shape           │       Param # │
├─────────────────────────────────┼────────────────────────┼───────────────┤
│ conv1d_6 (Conv1D)               │ (None, 4, 64)          │           192 │
├─────────────────────────────────┼────────────────────────┼───────────────┤
│ batch_normalization_4           │ (None, 4, 64)          │           256 │
│ (BatchNormalization)            │                        │               │
├─────────────────────────────────┼────────────────────────┼───────────────┤
│ max_pooling1d_2 (MaxPooling1D)  │ (None, 2, 64)          │             0 │
├─────────────────────────────────┼────────────────────────┼───────────────┤
│ conv1d_7 (Conv1D)               │ (None, 2, 128)         │        16,512 │
├─────────────────────────────────┼────────────────────────┼───────────────┤
│ flatten_3 (Flatten)             │ (None, 256)            │             0 │
├─────────────────────────────────┼────────────────────────┼───────────────┤
│ dense_8 (Dense)                 │ (None, 128)            │        32,896 │
├─────────────────────────────────┼────────────────────────┼───────────────┤
│ dropout_6 (Dropout)             │ (None, 128)            │             0 │
├─────────────────────────────────┼────────────────────────┼───────────────┤
│ dense_9 (Dense)                 │ (None, 3)              │           387 │
└─────────────────────────────────┴────────────────────────┴───────────────┘
 Total params: 50,243 (196.26 KB)
 Trainable params: 50,115 (195.76 KB)
 Non-trainable params: 128 (512.00 B)
Epoch 1/100

[1m1/8[0m [32m━━[0m[37m━━━━━━━━━━━━━━━━━━[0m [1m27s[0m 4s/step - accuracy: 0.3125 - loss: 1.4331
[1m8/8[0m [32m━━━━━━━━━━━━━━━━━━━━[0m[37m[0m [1m4s[0m 44ms/step - accuracy: 0.6833 - loss: 0.6787 - val_accuracy: 0.8333 - val_loss: 0.6186 - learning_rate: 0.0010
…
[1m8/8[0m [32m━━━━━━━━━━━━━━━━━━━━[0m[37m[0m [1m0s[0m 12ms/step - accuracy: 0.9583 - loss: 0.0971 - val_accuracy: 0.6667 - val_loss: 0.9856 - learning_rate: 2.5000e-04
Epoch 18: early stopping
Restoring model weights from the end of the best epoch: 3.

Test Accuracy: 86.67%

======================================================================
Training: CNN with L2 Regularization
======================================================================

Model Architecture:
Model: "sequential_4"
┌─────────────────────────────────┬────────────────────────┬───────────────┐
│ Layer (type)                    │ Output Shape           │       Param # │
├─────────────────────────────────┼────────────────────────┼───────────────┤
│ conv1d_8 (Conv1D)               │ (None, 4, 64)          │           192 │
├─────────────────────────────────┼────────────────────────┼───────────────┤
│ batch_normalization_5           │ (None, 4, 64)          │           256 │
│ (BatchNormalization)            │                        │               │
├─────────────────────────────────┼────────────────────────┼───────────────┤
│ max_pooling1d_3 (MaxPooling1D)  │ (None, 2, 64)          │             0 │
├─────────────────────────────────┼────────────────────────┼───────────────┤
│ flatten_4 (Flatten)             │ (None, 128)            │             0 │
├─────────────────────────────────┼────────────────────────┼───────────────┤
│ dense_10 (Dense)                │ (None, 128)            │        16,512 │
├─────────────────────────────────┼────────────────────────┼───────────────┤
│ dropout_7 (Dropout)             │ (None, 128)            │             0 │
├─────────────────────────────────┼────────────────────────┼───────────────┤
│ dense_11 (Dense)                │ (None, 64)             │         8,256 │
├─────────────────────────────────┼────────────────────────┼───────────────┤
│ dropout_8 (Dropout)             │ (None, 64)             │             0 │
├─────────────────────────────────┼────────────────────────┼───────────────┤
│ dense_12 (Dense)                │ (None, 3)              │           195 │
└─────────────────────────────────┴────────────────────────┴───────────────┘
 Total params: 25,411 (99.26 KB)
 Trainable params: 25,283 (98.76 KB)
 Non-trainable params: 128 (512.00 B)
Epoch 1/100

[1m1/8[0m [32m━━[0m[37m━━━━━━━━━━━━━━━━━━[0m [1m41s[0m 6s/step - accuracy: 0.3125 - loss: 4.1215
[1m8/8[0m [32m━━━━━━━━━━━━━━━━━━━━[0m[37m[0m [1m0s[0m 7ms/step - accuracy: 0.4530 - loss: 3.5276
…
